Running:
src/clustering/run.py --model_file ROS_experiment_2024-07-08_16-51-06_FOz

Using device: cpu
Loading and preprocessing data ...
44 samples may be used for evaluation
0 samples may be used for training
44 samples will be used for validation
Model:
TSTransformerEncoder(
  (project_inp): Linear(in_features=6, out_features=128, bias=True)
  (pos_enc): LearnablePositionalEncoding(
    (dropout): Dropout(p=0.0, inplace=False)
  )
  (transformer_encoder): TransformerEncoder(
    (layers): ModuleList(
      (0-2): 3 x TransformerBatchNormEncoderLayer(
        (self_attn): MultiheadAttention(
          (out_proj): NonDynamicallyQuantizableLinear(in_features=128, out_features=128, bias=True)
        )
        (linear1): Linear(in_features=128, out_features=512, bias=True)
        (dropout): Dropout(p=0.0, inplace=False)
        (linear2): Linear(in_features=512, out_features=128, bias=True)
        (norm1): BatchNorm1d(128, eps=1e-05, momentum=0.1, affine=True, track_running_stats=True)
        (norm2): BatchNorm1d(128, eps=1e-05, momentum=0.1, affine=True, track_running_stats=True)
        (dropout1): Dropout(p=0.0, inplace=False)
        (dropout2): Dropout(p=0.0, inplace=False)
      )
    )
  )
  (dropout1): Dropout(p=0.0, inplace=False)
  (output_layer): Linear(in_features=128, out_features=6, bias=True)
)
Total number of parameters: 602886
Trainable parameters: 602886
Evaluating model ...
Running:
src/clustering/run.py --model_file ROS_experiment_2024-07-08_16-51-06_FOz

Using device: cpu
Loading and preprocessing data ...
44 samples may be used for evaluation
0 samples may be used for training
44 samples will be used for validation
Model:
TSTransformerEncoder(
  (project_inp): Linear(in_features=6, out_features=128, bias=True)
  (pos_enc): LearnablePositionalEncoding(
    (dropout): Dropout(p=0.0, inplace=False)
  )
  (transformer_encoder): TransformerEncoder(
    (layers): ModuleList(
      (0-2): 3 x TransformerBatchNormEncoderLayer(
        (self_attn): MultiheadAttention(
          (out_proj): NonDynamicallyQuantizableLinear(in_features=128, out_features=128, bias=True)
        )
        (linear1): Linear(in_features=128, out_features=512, bias=True)
        (dropout): Dropout(p=0.0, inplace=False)
        (linear2): Linear(in_features=512, out_features=128, bias=True)
        (norm1): BatchNorm1d(128, eps=1e-05, momentum=0.1, affine=True, track_running_stats=True)
        (norm2): BatchNorm1d(128, eps=1e-05, momentum=0.1, affine=True, track_running_stats=True)
        (dropout1): Dropout(p=0.0, inplace=False)
        (dropout2): Dropout(p=0.0, inplace=False)
      )
    )
  )
  (dropout1): Dropout(p=0.0, inplace=False)
  (output_layer): Linear(in_features=128, out_features=6, bias=True)
)
Total number of parameters: 602886
Trainable parameters: 602886
Evaluating model ...
Running:
src/clustering/run.py --model_file ROS_experiment_2024-07-08_16-51-06_FOz

Using device: cpu
Loading and preprocessing data ...
Running:
src/clustering/run.py --model_file ROS_experiment_2024-07-08_16-51-06_FOz

Using device: cpu
Loading and preprocessing data ...
Running:
src/clustering/run.py --model_file ROS_experiment_2024-07-08_16-51-06_FOz

Using device: cpu
Loading and preprocessing data ...
44 samples may be used for evaluation
0 samples may be used for training
44 samples will be used for validation
Model:
TSTransformerEncoder(
  (project_inp): Linear(in_features=6, out_features=128, bias=True)
  (pos_enc): LearnablePositionalEncoding(
    (dropout): Dropout(p=0.0, inplace=False)
  )
  (transformer_encoder): TransformerEncoder(
    (layers): ModuleList(
      (0-2): 3 x TransformerBatchNormEncoderLayer(
        (self_attn): MultiheadAttention(
          (out_proj): NonDynamicallyQuantizableLinear(in_features=128, out_features=128, bias=True)
        )
        (linear1): Linear(in_features=128, out_features=512, bias=True)
        (dropout): Dropout(p=0.0, inplace=False)
        (linear2): Linear(in_features=512, out_features=128, bias=True)
        (norm1): BatchNorm1d(128, eps=1e-05, momentum=0.1, affine=True, track_running_stats=True)
        (norm2): BatchNorm1d(128, eps=1e-05, momentum=0.1, affine=True, track_running_stats=True)
        (dropout1): Dropout(p=0.0, inplace=False)
        (dropout2): Dropout(p=0.0, inplace=False)
      )
    )
  )
  (dropout1): Dropout(p=0.0, inplace=False)
  (output_layer): Linear(in_features=128, out_features=6, bias=True)
)
Total number of parameters: 602886
Trainable parameters: 602886
Evaluating model ...
Running:
src/clustering/run.py --model_file ROS_experiment_2024-07-08_16-51-06_FOz

Using device: cpu
Loading and preprocessing data ...
44 samples may be used for evaluation
0 samples may be used for training
44 samples will be used for validation
Model:
TSTransformerEncoder(
  (project_inp): Linear(in_features=6, out_features=128, bias=True)
  (pos_enc): LearnablePositionalEncoding(
    (dropout): Dropout(p=0.0, inplace=False)
  )
  (transformer_encoder): TransformerEncoder(
    (layers): ModuleList(
      (0-2): 3 x TransformerBatchNormEncoderLayer(
        (self_attn): MultiheadAttention(
          (out_proj): NonDynamicallyQuantizableLinear(in_features=128, out_features=128, bias=True)
        )
        (linear1): Linear(in_features=128, out_features=512, bias=True)
        (dropout): Dropout(p=0.0, inplace=False)
        (linear2): Linear(in_features=512, out_features=128, bias=True)
        (norm1): BatchNorm1d(128, eps=1e-05, momentum=0.1, affine=True, track_running_stats=True)
        (norm2): BatchNorm1d(128, eps=1e-05, momentum=0.1, affine=True, track_running_stats=True)
        (dropout1): Dropout(p=0.0, inplace=False)
        (dropout2): Dropout(p=0.0, inplace=False)
      )
    )
  )
  (dropout1): Dropout(p=0.0, inplace=False)
  (output_layer): Linear(in_features=128, out_features=6, bias=True)
)
Total number of parameters: 602886
Trainable parameters: 602886
Evaluating model ...
Running:
src/clustering/run.py --model_file ROS_experiment_2024-07-08_16-51-06_FOz

Using device: cpu
Loading and preprocessing data ...
44 samples may be used for evaluation
0 samples may be used for training
44 samples will be used for validation
Model:
TSTransformerEncoder(
  (project_inp): Linear(in_features=6, out_features=128, bias=True)
  (pos_enc): LearnablePositionalEncoding(
    (dropout): Dropout(p=0.0, inplace=False)
  )
  (transformer_encoder): TransformerEncoder(
    (layers): ModuleList(
      (0-2): 3 x TransformerBatchNormEncoderLayer(
        (self_attn): MultiheadAttention(
          (out_proj): NonDynamicallyQuantizableLinear(in_features=128, out_features=128, bias=True)
        )
        (linear1): Linear(in_features=128, out_features=512, bias=True)
        (dropout): Dropout(p=0.0, inplace=False)
        (linear2): Linear(in_features=512, out_features=128, bias=True)
        (norm1): BatchNorm1d(128, eps=1e-05, momentum=0.1, affine=True, track_running_stats=True)
        (norm2): BatchNorm1d(128, eps=1e-05, momentum=0.1, affine=True, track_running_stats=True)
        (dropout1): Dropout(p=0.0, inplace=False)
        (dropout2): Dropout(p=0.0, inplace=False)
      )
    )
  )
  (dropout1): Dropout(p=0.0, inplace=False)
  (output_layer): Linear(in_features=128, out_features=6, bias=True)
)
Total number of parameters: 602886
Trainable parameters: 602886
Evaluating model ...
Running:
src/clustering/run.py --model_file ROS_experiment_2024-07-08_16-51-06_FOz

Using device: cpu
Loading and preprocessing data ...
44 samples may be used for evaluation
0 samples may be used for training
44 samples will be used for validation
Model:
TSTransformerEncoder(
  (project_inp): Linear(in_features=6, out_features=128, bias=True)
  (pos_enc): LearnablePositionalEncoding(
    (dropout): Dropout(p=0.0, inplace=False)
  )
  (transformer_encoder): TransformerEncoder(
    (layers): ModuleList(
      (0-2): 3 x TransformerBatchNormEncoderLayer(
        (self_attn): MultiheadAttention(
          (out_proj): NonDynamicallyQuantizableLinear(in_features=128, out_features=128, bias=True)
        )
        (linear1): Linear(in_features=128, out_features=512, bias=True)
        (dropout): Dropout(p=0.0, inplace=False)
        (linear2): Linear(in_features=512, out_features=128, bias=True)
        (norm1): BatchNorm1d(128, eps=1e-05, momentum=0.1, affine=True, track_running_stats=True)
        (norm2): BatchNorm1d(128, eps=1e-05, momentum=0.1, affine=True, track_running_stats=True)
        (dropout1): Dropout(p=0.0, inplace=False)
        (dropout2): Dropout(p=0.0, inplace=False)
      )
    )
  )
  (dropout1): Dropout(p=0.0, inplace=False)
  (output_layer): Linear(in_features=128, out_features=6, bias=True)
)
Total number of parameters: 602886
Trainable parameters: 602886
Evaluating model ...
Running:
src/clustering/run.py --model_file ROS_experiment_2024-07-08_16-51-06_FOz

Using device: cpu
Loading and preprocessing data ...
1038 samples may be used for evaluation
0 samples may be used for training
1038 samples will be used for validation
Model:
TSTransformerEncoder(
  (project_inp): Linear(in_features=6, out_features=128, bias=True)
  (pos_enc): LearnablePositionalEncoding(
    (dropout): Dropout(p=0.0, inplace=False)
  )
  (transformer_encoder): TransformerEncoder(
    (layers): ModuleList(
      (0-2): 3 x TransformerBatchNormEncoderLayer(
        (self_attn): MultiheadAttention(
          (out_proj): NonDynamicallyQuantizableLinear(in_features=128, out_features=128, bias=True)
        )
        (linear1): Linear(in_features=128, out_features=512, bias=True)
        (dropout): Dropout(p=0.0, inplace=False)
        (linear2): Linear(in_features=512, out_features=128, bias=True)
        (norm1): BatchNorm1d(128, eps=1e-05, momentum=0.1, affine=True, track_running_stats=True)
        (norm2): BatchNorm1d(128, eps=1e-05, momentum=0.1, affine=True, track_running_stats=True)
        (dropout1): Dropout(p=0.0, inplace=False)
        (dropout2): Dropout(p=0.0, inplace=False)
      )
    )
  )
  (dropout1): Dropout(p=0.0, inplace=False)
  (output_layer): Linear(in_features=128, out_features=6, bias=True)
)
Total number of parameters: 602886
Trainable parameters: 602886
Evaluating model ...
Running:
src/clustering/run.py --model_file ROS_experiment_2024-07-08_16-51-06_FOz

Using device: cpu
Loading and preprocessing data ...
1038 samples may be used for evaluation
0 samples may be used for training
1038 samples will be used for validation
Model:
TSTransformerEncoder(
  (project_inp): Linear(in_features=6, out_features=128, bias=True)
  (pos_enc): LearnablePositionalEncoding(
    (dropout): Dropout(p=0.0, inplace=False)
  )
  (transformer_encoder): TransformerEncoder(
    (layers): ModuleList(
      (0-2): 3 x TransformerBatchNormEncoderLayer(
        (self_attn): MultiheadAttention(
          (out_proj): NonDynamicallyQuantizableLinear(in_features=128, out_features=128, bias=True)
        )
        (linear1): Linear(in_features=128, out_features=512, bias=True)
        (dropout): Dropout(p=0.0, inplace=False)
        (linear2): Linear(in_features=512, out_features=128, bias=True)
        (norm1): BatchNorm1d(128, eps=1e-05, momentum=0.1, affine=True, track_running_stats=True)
        (norm2): BatchNorm1d(128, eps=1e-05, momentum=0.1, affine=True, track_running_stats=True)
        (dropout1): Dropout(p=0.0, inplace=False)
        (dropout2): Dropout(p=0.0, inplace=False)
      )
    )
  )
  (dropout1): Dropout(p=0.0, inplace=False)
  (output_layer): Linear(in_features=128, out_features=6, bias=True)
)
Total number of parameters: 602886
Trainable parameters: 602886
Evaluating model ...
Running:
src/clustering/run.py --model_file ROS_experiment_2024-07-08_16-51-06_FOz

Using device: cpu
Loading and preprocessing data ...
1038 samples may be used for evaluation
0 samples may be used for training
1038 samples will be used for validation
Model:
TSTransformerEncoder(
  (project_inp): Linear(in_features=6, out_features=128, bias=True)
  (pos_enc): LearnablePositionalEncoding(
    (dropout): Dropout(p=0.0, inplace=False)
  )
  (transformer_encoder): TransformerEncoder(
    (layers): ModuleList(
      (0-2): 3 x TransformerBatchNormEncoderLayer(
        (self_attn): MultiheadAttention(
          (out_proj): NonDynamicallyQuantizableLinear(in_features=128, out_features=128, bias=True)
        )
        (linear1): Linear(in_features=128, out_features=512, bias=True)
        (dropout): Dropout(p=0.0, inplace=False)
        (linear2): Linear(in_features=512, out_features=128, bias=True)
        (norm1): BatchNorm1d(128, eps=1e-05, momentum=0.1, affine=True, track_running_stats=True)
        (norm2): BatchNorm1d(128, eps=1e-05, momentum=0.1, affine=True, track_running_stats=True)
        (dropout1): Dropout(p=0.0, inplace=False)
        (dropout2): Dropout(p=0.0, inplace=False)
      )
    )
  )
  (dropout1): Dropout(p=0.0, inplace=False)
  (output_layer): Linear(in_features=128, out_features=6, bias=True)
)
Total number of parameters: 602886
Trainable parameters: 602886
Evaluating model ...
Running:
src/clustering/run.py --model_file ROS_experiment_2024-07-08_16-51-06_FOz

Using device: cpu
Loading and preprocessing data ...
